exercise_classifier_v3.tflite (tflite, 23336 bytes, 8 tensors)

sequential/dense/BiasAdd/ReadVariableOp f4 [64]
-0.89314324 1.3838432 3.175614 -2.000289 0.20463118 -1.0701427 -2.8347027 -1.355905
-0.6653533 -1.379341 -1.6125954 0.9303625 3.8519824 4.104436 4.702537 5.2476583
6.2156034 7.2156568 -3.2156007 4.7645106 -1.2210759 -0.8895685 7.3666325 5.1921253
-3.7774982 0.01054947 -2.5382338 -2.6543753 -3.4920237 -1.1478891 -3.3703208 -0.5418446
-9.14338 -1.5844518 0.6819373 -3.2024152 -2.1365974 0.4736598 -1.8179309 -0.7970518
-3.7945642 -3.9353442 7.1454945 -2.8612602 -0.20759244 -2.1562045 -2.6067271 0.35140523
1.4561504 -1.0635546 -0.8425952 7.3981113 -0.8945597 7.292856 -2.2152731 -6.1735086
-2.284476 -3.7799432 -0.787551 -3.56185 -1.7549677 -0.10527446 2.6821206 -1.3691286
00000000: 09a5 64bf c621 b13f 433d 4b40 bc04 00c0
00000010: d68a 513e 70fa 88bf c56b 35c0 4c8e adbf
00000020: 9854 2abf 3f8e b0bf 8769 cebf 3d2c 6e3f
00000030: e186 7640 8a57 8340 2f7b 9640 d1ec a740
00000040: 39e6 c640 a9e6 e640 67cc 4dc0 df76 9840
00000050: 374c 9cbf c3ba 63bf 74bb eb40 e425 a640
00000060: 88c2 71c0 afd7 2c3c 6c72 22c0 49e1 29c0
00000070: 517d 5fc0 08ee 92bf 56b3 57c0 54b6 0abf
00000080: 494b 12c1 51cf cabf 7193 2e3f 5ff4 4cc0
00000090: 03be 08c0 8a83 f23e f6b1 e8bf 960b 4cbf
000000a0: 24da 72c0 aedc 7bc0 e4a7 e440 e31e 37c0
000000b0: 1d93 54be 41ff 09c0 9ed4 26c0 63eb b33e
000000c0: 2363 ba3f 8f22 88bf 52b4 57bf 54bd ec40
000000d0: dd01 65bf 145f e940 09c7 0dc0 628d c5c0
000000e0: db34 12c0 97ea 71c0 f19c 49bf 5af5 63c0
000000f0: c8a2 e0bf 239a d7bd dda7 2b40 9b3f afbf

sequential/dense_3/BiasAdd/ReadVariableOp f4 [10]
1.6274565 3.945882 2.5932279 -6.480861 -1.4900448 -1.8581457 2.5321023 0.01984334
-3.1653967 -2.7333663
00000000: 7f50 d03f 5589 7c40 72f7 2540 3763 cfc0
00000010: cab9 bebf b8d7 edbf f70d 2240 808e a23c
00000020: dc95 4ac0 79ef 2ec0

sequential/dense_2/BiasAdd/ReadVariableOp f4 [16]
-7.0636444 -4.9933586 -1.6789321 -2.9683256 -1.8844873 -1.93147 -2.5077555 -1.9920101
-4.1763897 -1.9288406 -4.2212033 -4.1029835 -2.4438884 -3.7131543 -4.2532754 -2.4177473
00000000: 6009 e2c0 98c9 9fc0 3fe7 d6bf 0cf9 3dc0
00000010: e136 f1bf 693a f7bf 117f 20c0 30fa febf
00000020: fca4 85c0 40e4 f6bf 1914 87c0 a44b 83c0
00000030: ab68 1cc0 52a4 6dc0 d51a 88c0 5fbc 1ac0

sequential/dense_1/BiasAdd/ReadVariableOp f4 [32]
-0.45517147 -6.419619 -3.5192676 -3.8957841 -6.383657 -3.3000088 -3.4071877 -5.826313
-3.5511763 -0.6466215 -2.5771337 -5.6085343 -4.167934 -6.668686 -3.0535762 -3.9424791
-4.085801 -1.8894122 -0.49656215 -0.5255819 -5.888795 -6.428965 -6.7260747 -3.3542936
-3.4631212 -3.6044416 -3.76804 -6.2404666 -3.9032054 -2.566144 -3.4262738 -3.0835402
00000000: 3c0c e9be 856d cdc0 ae3b 61c0 8754 79c0
00000010: eb46 ccc0 5833 53c0 5d0f 5ac0 2871 bac0
00000020: 7946 63c0 fd88 25bf c2ef 24c0 1d79 b3c0
00000030: b75f 85c0 e065 d5c0 cb6d 43c0 9451 7cc0
00000040: e2be 82c0 42d8 f1bf 653d febe 898c 06bf
00000050: 0271 bcc0 15ba cdc0 013c d7c0 bfac 56c0
00000060: c7a3 5dc0 2caf 66c0 9127 71c0 e7b1 c7c0
00000070: 1ece 79c0 b43b 24c0 1248 5bc0 b958 45c0

sequential/dense/MatMul f4 [64, 36]
-5.7460175 0.24200562 -8.005083 -5.5712104 17.72766 0.36046296 -0.06438605 -10.786481
-4.231879 -0.4343299 8.995524 1.5371832 2.6817427 -7.5919733 -3.1911712 -2.4151282
-4.687426 4.2360606 -0.7423426 10.215862 7.0720153 -9.248429 -10.407489 11.24142
-8.41422 -5.747119 0.7812496 -20.274422 5.7366667 5.8731136 -26.865582 8.842848
1.5514306 3.924235 9.616073 5.221999 2.5429747 4.5428786 4.8082047 -1.4402176
4.569238 2.6777632 -5.4494443 -1.2758807 -0.05588714 -8.316851 -16.169516 -3.447377
-12.172412 -15.549455 2.1379185 1.6671264 -5.9053116 3.7076402 6.4392834 2.0876198
1.9418727 3.0617392 10.306145 2.1588056 2.714679 4.2902045 3.8749819 -8.924646
-15.022835 6.261756 -10.823884 -14.905992 4.704488 7.974506 4.142747 3.0415826
-0.46679518 -4.9959383 3.846256 11.904391 -27.399376 -6.6732745 2.13753 22.565918
-1.5528932 -15.625014 9.208425 -6.797254 1.4761319 -12.558563 1.2327085 -5.044382
-9.4268265 -1.8265215 -4.7902746 8.030198 10.62614 -0.81476754 1.051798 8.225331
1.715332 3.2821953 18.243504 -33.96012 -1.9031345 10.372857 -24.948643 1.473641
-2.3461616 -4.3424873 4.939488 4.4887695 3.121809 -6.0473723 11.203371 6.1396747
-40.48244 -11.976149 2.3001885 34.75406 -1.4944899 -1.2499224 1.2134522 -12.972771
2.7400525 -4.0076795 4.105809 -1.7022972 5.56518 -2.1653063 -7.662791 7.432773
11.630079 3.4439392 -8.164259 8.41078 2.835105 -9.526624 6.2863874 -10.008245
-3.7722347 -4.704877 2.6949568 -4.868777 -2.787975 -5.9091487 8.333133 6.104091
0.120065264 -8.021686 3.8445735 0.26696107 -31.190962 -11.172101 2.9864953 30.023785
-4.94998 -7.7348785 12.439143 -10.399967 7.0213017 -4.2843623 1.0353594 -3.6838982
-0.93134296 -5.112174 -7.7116604 8.881495 11.25362 2.9208913 -6.5811296 10.054025
5.127426 -4.4964747 8.242201 -21.147482 -2.8036737 0.31042075 -10.870377 -2.3984385
-4.242129 -5.4039574 7.258864 6.655634 -4.4192348 1.33809 1.2438307 1.7572981
8.704466 -1.2906739 -6.714173 -6.2693224 3.9425976 4.081796 2.5212233 -0.46330187
-4.6658726 -6.157032 0.49663678 -3.892253 -4.574565 1.4458128 -2.1174169 7.645229
6.0589657 -0.92357963 -10.29026 8.844274 3.7241554 -7.9091663 16.678795 -28.631403
-1.6568049 14.9985895 -25.823975 0.3256754 1.5595807 5.691357 0.9939846 1.3884382
-1.3496723 -0.06889995 -2.278408 -20.587992 10.171432 -4.4140387 6.852084 5.0293283
-3.4465454 -8.2503 5.4301157 -4.3518744 6.35872 -1.6857183 -1.4258463 1.7125778
-0.157757 -0.8719079 -12.621998 10.981013 7.8698635 12.951463 -16.115654 12.578156
21.346575 -10.751272 -12.036231 -10.769271 -0.43782932 -10.9918995 -10.952391 3.186087
-7.438636 -4.7770276 7.767872 5.6179996 -3.8079295 -0.15702736 -8.5280695 -5.6775827
00000000: 60df b7c0 52d0 773e d214 00c1 5b47 b2c0
00000010: 3fd2 8d41 9a8e b83e d5dc 83bd 6d95 2cc1
00000020: 8e6b 87c0 7d60 debe abed 0f41 6bc2 c43f
00000030: aca1 2b40 72f1 f2c0 263c 4cc0 7691 1ac0
00000040: 65ff 95c0 cf8d 8740 2a0a 3ebf 2c74 2341
00000050: f34d e240 91f9 13c1 1385 26c1 dbdc 3341
00000060: a5a0 06c1 66e8 b7c0 f9ff 473f 0432 a2c1
00000070: c692 b740 8cf0 bb40 b6ec d6c1 4e7c 0d41
00000080: 4795 c63f ab26 7b40 6fdb 1941 9e1a a740
00000090: 19c0 2240 435f 9140 d0dc 9940 0d59 b8bf
000000a0: 3337 9240 7960 2b40 d961 aec0 0f50 a3bf
000000b0: eae9 64bd d211 05c1 2b5b 81c1 d3a1 5cc0
000000c0: 33c2 42c1 91ca 78c1 a8d3 0840 6664 d53f
000000d0: 50f8 bcc0 fa49 6d40 9c0e ce40 909b 0540
000000e0: 498f f83f 89f3 4340 f8e5 2441 df29 0a40
000000f0: 4dbd 2d40 5b49 8940 b4ff 7740 5acb 0ec1
00000100: 885d 70c1 4e60 c840 a12e 2dc1 f17e 6ec1
00000110: 2a8b 9640 272f ff40 6291 8440 4aa9 4240
00000120: c7ff eebe bade 9fc0 0f29 7640 6378 3e41
00000130: ec31 dbc1 778b d5c0 4bcd 0840 0087 b441
00000140: 34c5 c6bf 0f00 7ac1 b555 1341 1b83 d9c0
00000150: e4f1 bc3f e0ef 48c1 64c9 9d3f 946b a1c0
00000160: 48d4 16c1 75cb e9bf ee49 99c0 b17b 0041
00000170: ab04 2a41 9b94 50bf 51a1 863f f59a 0341
00000180: 0090 db3f 7d0f 5240 b2f2 9141 2ad7 07c2
00000190: e999 f3bf 39f7 2541 d296 c7c1 45a0 bc3f
000001a0: 8327 16c0 a8f5 8ac0 4910 9e40 00a4 8f40
000001b0: b8cb 4740 1384 c1c0 0241 3341 3778 c440
000001c0: 05ee 21c2 4e9e 3fc1 4a36 1340 2804 0b42
000001d0: 724b bfbf 75fd 9fbf 6752 9b3f 7890 4fc1
000001e0: 055d 2f40 e93e 80c0 ca62 8340 e0e4 d9bf
000001f0: f415 b240 6194 0ac0 9535 f5c0 47d9 ed40
00000200: ce14 3a41 8069 5c40 cea0 02c1 8e92 0641
00000210: 5c72 3540 0d6d 18c1 162a c940 c621 20c1
00000220: 4b6c 71c0 5a8e 96c0 2c7a 2c40 05cd 9bc0
00000230: 2f6e 32c0 bf17 bdc0 8354 0541 b754 c340
00000240: c7e4 f53d d358 00c1 7e0d 7640 1faf 883e
00000250: 1787 f9c1 edc0 32c1 bd22 3f40 b630 f041
00000260: 3c66 9ec0 2084 f7c0 bb06 4741 4466 26c1
00000270: 81ae e040 7f19 89c0 a886 843f fdc4 6bc0
00000280: 7e6c 6ebf ee96 a3c0 ecc5 f6c0 9b1a 0e41
00000290: d40e 3441 e2ef 3a40 9d98 d2c0 49dd 2041
000002a0: e013 a440 1fe3 8fc0 0ee0 0341 0b2e a9c1
000002b0: 646f 33c0 78ef 9e3e 10ed 2dc1 0480 19c0
000002c0: 85bf 87c0 38ed acc0 9d48 e840 f4fa d440
000002d0: 5f6a 8dc0 8846 ab3f d835 9f3f 25ef e03f
000002e0: 7e45 0b41 cd34 a5bf 81da d6c0 4a9e c8c0
000002f0: 8553 7c40 139e 8240 b95b 2140 e735 edbe
00000300: d44e 95c0 6806 c5c0 2d47 fe3e ac1a 79c0
00000310: d662 92c0 6510 b93f c283 07c0 b7a5 f440
00000320: 0ce3 c140 b76f 6cbf e8a4 24c1 2582 0d41
00000330: 9058 6e40 e417 fdc0 2c6e 8541 1d0d e5c1
00000340: 2f12 d4bf 39fa 6f41 8097 cec1 edbe a63e
00000350: 57a0 c73f 991f b640 c675 7e3f 58b8 b13f
00000360: 10c2 acbf 6b1b 8dbd 70d1 11c0 35b4 a4c1
00000370: 2fbe 2241 ce3f 8dc0 4644 db40 42f0 a040
00000380: 3394 5cc0 3b01 04c1 82c3 ad40 8e42 8bc0
00000390: a27a cb40 9ec5 d7bf 2282 b6bf c035 db3f
000003a0: 0d8b 21be 5b35 5fbf b4f3 49c1 3bb2 2f41
000003b0: ecd5 fb40 3139 4f41 dcec 80c1 2140 4941
000003c0: c9c5 aa41 3605 2cc1 6794 40c1 ef4e 2cc1
000003d0: 2a2b e0be d2de 2fc1 fe3c 2fc1 d9e8 4b40
000003e0: 4e09 eec0 69dd 98c0 6892 f840 a7c6 b340
000003f0: 1eb5 73c0 c8cb 20be f972 08c1 c2ae b5c0

sequential/dense_1/MatMul f4 [32, 64]
0.9910155 -3.045652 -7.704186 -10.810942 -13.326557 -1.2297137 -2.658332 1.56337
0.1956937 -0.6670879 0.3497828 -16.743177 0.21584174 -1.179111 -1.8577049 -1.2307388
-2.4921541 -2.5995421 -5.6754885 -0.8489158 0.06931598 1.3808653 -2.831212 -2.4083781
0.023064412 -21.045984 -9.62399 0.27315053 0.19572873 0.5095381 0.45935285 -0.61002994
1.0778371 0.7673261 0.89333713 -11.263336 -11.240223 0.5297802 0.55090255 -0.98564225
0.42003465 -17.887354 -3.2089975 1.1682439 -0.42523634 -12.536321 -0.11682286 0.059020095
-13.9519 -0.83894116 0.20646039 -1.4613919 1.9677564 -3.7073321 -4.139328 -10.152841
-13.491169 0.09496268 0.073904596 -19.658115 -0.38225642 -2.4335463 -4.8931623 -0.033046838
-10.377624 1.237978 -1.1674905 -3.290745 -4.114766 -5.758819 -17.100088 -12.845273
6.441145 0.9921335 -12.576118 -3.834044 9.013008 11.192323 7.957111 4.388993
0.41978073 0.0036293012 0.032994952 4.8008237 3.1455462 -11.985614 0.33695093 -0.87432384
5.42152 -1.5831745 -0.42138547 5.6070867 5.1725893 -7.019997 4.7210784 4.613101
3.5872703 -23.094128 -13.793233 -0.6747063 -4.819766 -12.642845 -26.200274 -5.040617
2.677599 -2.7113504 1.2502112 -26.76309 5.256119 -0.6152401 8.444471 8.278123
-4.199097 0.108760424 2.872943 0.12294529 -8.528336 -0.22858775 -10.303877 -1.7693487
0.73856217 5.8781676 8.853487 0.72540265 0.6855935 -3.6296308 1.0170736 -3.3600464
0.1914164 -5.4865093 3.4550934 -0.21256754 0.8593003 -4.8410783 0.6525625 0.043130603
0.2738208 0.1366057 -0.077165715 2.2003477 -3.8072858 -3.3135908 -6.473112 -6.2028704
-6.661137 -5.409366 2.8653362 -7.907007 0.4451956 0.2093839 -7.89467 -5.774046
0.013667487 3.0613043 2.3205616 -0.0943872 0.15771894 -1.4350806 0.011476274 0.36113465
0.49396074 -0.1796778 -0.62367606 -6.2064915 -0.79421604 -0.6582711 -0.101216674 -5.2138543
-0.55909526 -1.9622508 -7.1969013 0.056783073 0.4633772 2.733193 0.41796592 -0.15302913
2.0669088 -0.5436023 -0.11423215 -6.6519146 -0.80941194 -8.03516 1.5325302 -5.5858707
1.1820388 0.32734382 0.3466829 4.992245 -0.37042245 -7.063135 -5.5377626 -2.282994
-0.031009853 -3.9858193 -0.32227215 0.093143016 0.21114774 -2.8747714 -0.39463484 0.676123
-0.0023431405 -5.9812474 0.117920846 -0.11160437 -3.2286754 -0.5820314 -4.146893 -4.8286257
-4.803036 -6.2380023 6.359748 -5.1385283 -0.15367818 -0.50251794 -4.883336 -4.806845
-9.403039 0.687037 5.6069026 -4.1461506 -7.978781 -2.1784506 -3.779244 -2.9952424
-3.706722 -0.0033303977 0.46496084 -1.6108685 0.11780391 0.27845228 0.02848939 -4.0029073
-10.949 0.3795561 -4.211768 0.096732326 -0.10212582 5.0127664 -10.157382 -0.636978
0.16314028 -2.6227486 -7.7696824 -6.666724 -0.33038932 -6.3230667 -0.31729937 -1.7065895
4.850657 -0.7579734 -0.07391983 3.025137 -2.0423818 -6.5968914 -2.8711429 -2.6352541
00000000: 31b3 7d3f f6eb 42c0 b188 f6c0 9ef9 2cc1
00000010: 9439 55c1 4267 9dbf 1d22 2ac0 821c c83f
00000020: ee63 483e 46c6 2abf bb16 b33e 07f2 85c1
00000030: 9e05 5d3e 1ced 96bf 46c9 edbf d988 9dbf
00000040: 747f 1fc0 e65e 26c0 9a9d b5c0 8c52 59bf
00000050: 89f5 8d3d 32c0 b03f 9432 35c0 de22 1ac0
00000060: 94f1 bc3c 2d5e a8c1 ddfb 19c1 63da 8b3e
00000070: 1d6d 483e 1771 023f 4c30 eb3e ec2a 1cbf
00000080: 91f6 893f 7c6f 443f beb1 643f a036 34c1
00000090: f4d7 33c1 ad9f 073f f307 0d3f 0d53 7cbf
000000a0: c80e d73e 4d19 8fc1 3760 4dc0 0489 953f
000000b0: 94b8 d9be c594 48c1 d340 efbd 0ebf 713d
000000c0: fb3a 5fc1 d9c4 56bf 5a6a 533e e40e bbbf
000000d0: 71df fb3f ee44 6dc0 6075 84c0 0972 22c1
000000e0: d4db 57c1 cb7b c23d 4b5b 973d d243 9dc1
000000f0: 1db7 c3be 39bf 1bc0 c994 9cc0 1f5c 07bd
00000100: bf0a 26c1 1076 9e3f 5470 95bf 919b 52c0
00000110: 2aac 83c0 3f48 b8c0 fbcc 88c1 3d86 4dc1
00000120: dc1d ce40 76fc 7d3f c837 49c1 fa60 75c0
00000130: 4835 1041 c113 3341 a7a0 fe40 a172 8c40
00000140: 80ed d63e 92d9 6d3b b725 073d 59a0 9940
00000150: a150 4940 13c5 3fc1 d584 ac3e b0d3 5fbf
00000160: 187d ad40 76a5 cabf d6bf d7be 416d b340
00000170: da85 a540 d1a3 e0c0 1313 9740 869e 9340
00000180: d695 6540 c6c0 b8c1 15b1 5cc1 8db9 2cbf
00000190: 863b 9ac0 1849 4ac1 299a d1c1 bc4c a1c0
000001a0: c85d 2b40 c486 2dc0 ec06 a03f cf1a d6c1
000001b0: 2032 a840 6080 1dbf 8e1c 0741 3173 0441
000001c0: 015f 86c0 c9bd de3d 4cde 3740 bdca fb3d
000001d0: 1074 08c1 e812 6abe aedc 24c1 057a e2bf
000001e0: 6912 3d3f f319 bc40 e2a7 0d41 fdb3 393f
000001f0: 0e83 2f3f df4b 68c0 782f 823f 000b 57c0
00000200: a902 443e 7c91 afc0 4020 5d40 4eab 59be
00000210: 1bfb 5b3f 1dea 9ac0 560e 273f b7a9 303d
00000220: 3d32 8c3e 5de2 0b3e 0f09 9ebd 7fd2 0c40
00000230: 92aa 73c0 df11 54c0 bc23 cfc0 ea7d c6c0
00000240: 0928 d5c0 8719 adc0 ab61 3740 3406 fdc0
00000250: adf0 e33e bc68 563e 23a1 fcc0 fcc4 b8c0
00000260: 98ed 5f3c 69ec 4340 1584 1440 144e c1bd
00000270: 1381 213e b9b0 b7bf fb06 3c3c a4e6 b83e
00000280: 6ce8 fc3e 75fd 37be 3ca9 1fbf 949b c6c0
00000290: be51 4bbf 7484 28bf b04a cfbd e5d7 a6c0
000002a0: de20 0fbf 092b fbbf 044d e6c0 5e95 683d
000002b0: c73f ed3e a2ec 2e40 a1ff d53e abb3 1cbe
000002c0: 3c48 0440 8529 0bbf 8cf2 e9bd 7cdc d4c0
000002d0: 9f35 4fbf 0490 00c1 f329 c43f 74bf b2c0
000002e0: 0c4d 973f 9c99 a73e 6c80 b13e 79c0 9f40
000002f0: 03a8 bdbe 3405 e2c0 5a35 b1c0 931c 12c0
00000300: 6008 febc aa17 7fc0 db00 a5be c4c1 be3d
00000310: 1d37 583e 41fc 37c0 940d cabe 6616 2d3f
00000320: 608f 19bb 6166 bfc0 7c80 f13d d590 e4bd
00000330: 9ea2 4ec0 0300 15bf 59b3 84c0 1a84 9ac0
00000340: 79b2 99c0 b79d c7c0 0e83 cb40 d36e a4c0
00000350: d05d 1dbe 04a5 00bf 4a44 9cc0 add1 99c0
00000360: d972 16c1 a8e1 2f3f bf6b b340 44ad 84c0
00000370: 2d52 ffc0 bc6b 0bc0 22df 71c0 0db2 3fc0
00000380: ef3a 6dc0 cd42 5abb 590f ee3e f030 cebf
00000390: 2d43 f13d 4c91 8e3e 9562 e93c d117 80c0
000003a0: 1b2f 2fc1 2d55 c23e cec6 86c0 991b c63d
000003b0: 5827 d1bd 9568 a040 a384 22c1 fd10 23bf
000003c0: 3f0e 273e 1ddb 27c0 3da1 f8c0 ce55 d5c0
000003d0: ca28 a9be 9056 cac0 1075 a2be 8671 dabf
000003e0: 9538 9b40 8b0a 42bf 4863 97bd d89b 4140
000003f0: 62b6 02c0 bc19 d3c0 cec0 37c0 01a8 28c0

sequential/dense_2/MatMul f4 [16, 32]
0.059307527 0.3354822 -0.36146575 -1.0903419 24.843159 -0.09424348 14.723932 0.47473812
-0.38305885 0.33019626 4.416607 0.56757194 6.3085947 11.266945 6.76982 6.3623996
5.14679 3.4048357 0.17223166 0.02707909 0.22458892 0.4738406 6.9397626 -0.41209882
-0.16784373 6.4510045 6.8274307 0.22672985 5.0567956 3.9581957 -0.10953853 -0.25603947
-1.1385194 0.18002932 0.87606114 3.606152 1.9397739 1.1966262 -49.31268 -0.021206157
2.607422 -0.04260825 1.3349365 0.14701433 -39.779537 4.442679 -29.72499 -36.97466
-39.97779 0.13512036 -0.9351387 -0.4389096 0.28459758 0.3024014 4.4836392 4.6065016
0.32907435 -38.20833 -39.87329 -0.025743369 -39.20354 1.0348574 3.8849862 1.7574129
-9.0851345 0.11573312 -22.171581 -25.468037 1.0179394 -14.048648 1.4871829 0.2201882
-21.20718 -11.323503 -20.723635 0.15326019 0.19148216 0.49282074 -2.1367986 0.34311956
0.13749376 -16.631124 -9.4848385 -9.49037 0.1771856 0.10423226 0.34147906 -22.79315
-13.034986 0.18404539 0.3842825 0.27698857 0.058139782 -17.54036 -20.122099 -15.015191
-14.966329 -0.2302692 0.18494411 1.4884311 1.1988292 0.13030453 2.5669863 -0.39994392
0.23307097 -12.600998 -29.869783 -0.01762903 -0.043835886 0.0013387026 -0.11501614 -0.040751882
-0.095290646 -20.618622 -13.677645 -12.362464 0.12918402 -0.2456867 -0.15082599 0.47630447
0.24974963 0.009864718 0.021453343 -0.39342073 -0.15224513 -27.95738 0.16153467 0.2745744
-18.422558 0.02141123 -23.40746 -21.854588 1.1605657 -11.812843 1.0968318 0.25039715
-24.961544 -18.057705 -24.888971 0.17449497 0.3969052 0.773878 -1.0787435 0.2781162
0.09551292 -22.76944 -16.658508 -16.23376 -0.06499673 0.23715983 0.7766242 -23.398235
-12.698783 0.35066772 0.27287254 0.022889568 0.054648165 -26.646097 -22.962473 -12.205396
-22.694128 0.16424064 -33.31937 -35.179817 1.2032692 -18.862677 0.673477 -0.022243764
-32.182426 -23.35431 -29.992031 0.10726113 0.05604916 0.6025321 -15.634794 0.37574157
0.13604291 -26.33958 -23.911272 -21.706863 0.4004977 0.27030107 0.90793437 -31.21246
-19.308134 0.1746331 0.3807975 0.016047003 0.047919285 -23.12653 -35.20297 -16.732609
-1.9212337 -1.5836825 1.1870798 2.5479267 -58.5166 1.4006064 -51.69224 -1.5453562
0.31667256 -1.7128111 -5.881575 -1.3417249 -0.02462581 -8.907757 0.06737902 -0.029399227
-0.018779388 -3.9029293 -2.0210485 -2.2015953 -0.9678449 -1.0476129 -6.66641 0.8198958
0.84955776 0.023254756 -0.13577971 -1.2259531 -0.07427932 -4.3925548 0.5470727 0.80931854
-24.435753 0.22624417 -33.090668 -22.901968 0.8025864 -18.490551 1.2707286 0.30699915
-32.412224 -22.992481 -29.640932 0.1953896 0.33596048 0.67098784 -17.454676 0.14867136
0.25471202 -27.435215 -21.534449 -22.192104 0.089803584 0.3331063 0.787903 -28.88015
-18.33961 0.3964274 0.30307475 0.16006888 0.05653828 -29.198423 -30.85635 -17.081959
00000000: 73ec 723d 53c4 ab3e 0a12 b9be 5390 8bbf
00000010: cabe c641 ba02 c1bd 3a95 6b41 e010 f33e
00000020: 4a20 c4be 7c0f a93e d854 8d40 654c 113f
00000030: 02e0 c940 6845 3441 5ea2 d840 c798 cb40
00000040: 81b2 a440 d4e8 5940 7f5d 303e f8d4 dd3c
00000050: a3fa 653e 3c9b f23e 8912 de40 9efe d2be
00000060: 3adf 2bbe a16e ce40 507a da40 df2b 683e
00000070: 45d1 a140 1453 7d40 bd55 e0bd 9b17 83be
00000080: 01bb 91bf 9b59 383e 8b45 603f 32cb 6640
00000090: 834a f83f 0c2b 993f 2f40 45c2 89b8 adbc
000000a0: 01e0 2640 fd85 2ebd 33df aa3f ed8a 163e
000000b0: 3f1e 1fc2 6d2a 8e40 c8cc edc1 0de6 13c2
000000c0: 42e9 1fc2 fe5c 0a3e 4065 6fbf c2b8 e0be
000000d0: c6b6 913e 5bd4 9a3e f979 8f40 7668 9340
000000e0: 6f7c a83e 54d5 18c2 407e 1fc2 c2e3 d2bc
000000f0: 6dd0 1cc2 3576 843f 9da3 7840 e8f2 e03f
00000100: b65c 11c1 7c05 ed3d 665f b1c1 8abe cbc1
00000110: d74b 823f 43c7 60c1 025c be3f 0479 613e
00000120: 4ea8 a9c1 112d 35c1 01ca a5c1 3df0 1c3e
00000130: e613 443e 0053 fc3e 4fc1 08c0 5ead af3e
00000140: 2acb 0c3e 8b0c 85c1 e6c1 17c1 8ed8 17c1
00000150: 2470 353e b977 d53d 58d6 ae3e 5f58 b6c1
00000160: 4d8f 50c1 6576 3c3e adc0 c43e 72d1 8d3e
00000170: fb23 6e3d a852 8cc1 0ffa a0c1 393e 70c1
00000180: 1576 6fc1 b0cb 6bbe fd61 3d3e e984 be3f
00000190: 3c73 993f 8d6e 053e 8149 2440 73c5 ccbe
000001a0: 28aa 6e3e b09d 49c1 51f5 eec1 c16a 90bc
000001b0: 428d 33bd 6877 af3a 958d ebbd 72eb 26bd
000001c0: be27 c3bd f0f2 a4c1 a2d7 5ac1 a7cc 45c1
000001d0: d148 043e 4b95 7bbe 2172 1abe 2ede f33e
000001e0: 5ebe 7f3e a09f 213c ecbe af3c 716e c9be
000001f0: 26e6 1bbe b7a8 dfc1 5869 253e 0495 8c3e
00000200: 6661 93c1 9b66 af3c 7a42 bbc1 32d6 aec1
00000210: 6b8d 943f 6801 3dc1 fc64 8c3f 0e34 803e
00000220: 3eb1 c7c1 2e76 90c1 9d1c c7c1 cfae 323e
00000230: 2937 cb3e de1c 463f 4414 8abf 3f65 8e3e
00000240: 479c c33d d027 b6c1 a044 85c1 bede 81c1
00000250: 011d 85bd 07da 723e d8d0 463f 962f bbc1
00000260: 372e 4bc1 b88a b33e f3b5 8b3e e782 bb3c
00000270: c1d6 5f3d 352b d5c1 25b3 b7c1 4d49 43c1
00000280: 938d b5c1 b32e 283e 0947 05c2 22b8 0cc2
00000290: ba04 9a3f c3e6 96c1 fd68 2c3f 8e38 b6bc
000002a0: ceba 00c2 a0d5 bac1 aeef efc1 b9ab db3d
000002b0: ce93 653d 8b3f 1a3f 1e28 7ac1 3361 c03e
000002c0: d54e 0b3e 76b7 d2c1 494a bfc1 a8a7 adc1
000002d0: 090e cd3e e764 8a3e 636e 683f 1eb3 f9c1
000002e0: 0f77 9ac1 05d3 323e e4f7 c23e 0175 833c
000002f0: 0347 443d 2203 b9c1 d7cf 0cc2 62dc 85c1
00000300: fcea f5bf 1cb6 cabf 3bf2 973f 3b11 2340
00000310: 0011 6ac2 1247 b33f dbc4 4ec2 3bce c5bf
00000320: e822 a23e 653d dbbf dd35 bcc0 a4bd abbf
00000330: 11bc c9bc 2c86 0ec1 03fe 893d a6d6 f0bc
00000340: 3bd7 99bc 98c9 79c0 dc58 01c0 f0e6 0cc0
00000350: afc4 77bf 2e18 86bf 3b53 d5c0 b1e4 513f
00000360: 9e7c 593f c280 be3c d609 0bbe 08ec 9cbf
00000370: c21f 98bd cf8f 8cc0 f50c 0c3f 802f 4f3f
00000380: 6c7c c3c1 8dac 673e d85c 04c2 3b37 b7c1
00000390: 4d76 4d3f a6ec 93c1 3ca7 a23f fe2e 9d3e
000003a0: 1ea6 01c2 9af0 b7c1 a120 edc1 3614 483e
000003b0: 0303 ac3e dcc5 2b3f 2da3 8bc1 4e3d 183e
000003c0: 9d69 823e 527b dbc1 8d46 acc1 6e89 b1c1
000003d0: f1ea b73d e98c aa3e 03b4 493f 8c0a e7c1
000003e0: 85b7 92c1 88f8 ca3e 9d2c 9b3e 19e9 233e
000003f0: af94 673d 5f96 e9c1 ced9 f6c1 daa7 88c1

sequential/dense_3/MatMul f4 [10, 16]
-0.70068145 -39.140255 -31.128092 -21.729088 -25.718029 -25.35548 -10.348402 -24.70528
-0.19533856 -26.88134 0.4025274 0.22494403 -8.918086 0.6730982 -0.4412657 -8.985206
-1.4746379 -0.048907053 -3.0015123 -18.964825 -5.45752 -5.7949734 -11.318162 -5.8123407
-46.868668 -5.1355457 -49.509895 -60.394848 -20.296917 -37.268723 -46.755154 -16.7578
-34.461704 -11.421217 -11.610069 -20.519527 -13.58644 -15.712815 -3.2297585 -16.035454
-9.589655 -12.558016 -9.271949 -10.718477 -11.2376175 -6.9083915 -10.240821 -9.9051
2.0830128 0.78493255 3.177091 5.065819 3.1957514 3.1804485 0.19679269 3.467094
2.0882099 3.5661252 2.5675888 2.4556592 2.2349002 2.7304711 2.1484127 1.5625154
1.5794855 2.586749 3.0168242 2.8278735 3.3003492 3.3951976 -21.7559 3.8277986
-29.386862 3.5440984 -8.082811 -22.574274 -21.735104 -17.837553 -23.53769 -22.16486
2.1496527 -49.336082 -14.302767 -29.237087 -14.639774 -14.909312 -12.456724 -16.529224
2.1265051 -12.878902 2.193045 2.5432866 -8.504914 2.6078784 2.040445 -9.040198
1.2931556 2.7147272 -6.8612 -17.901598 -7.3066826 -6.0378013 -26.200586 -6.5636954
-42.42929 -7.1487994 -57.872257 -63.139324 -24.177542 -41.959404 -43.1543 -21.643232
-12.831587 -2.599116 0.020564582 -1.216598 0.098722555 -0.5212064 0.75712943 -0.40888482
-3.114173 0.06855119 -2.283496 -3.393268 0.1008475 -3.002868 -3.8182285 -0.42529315
1.8411884 1.2391266 -4.4797573 2.62653 -3.34415 -6.0206723 3.3984542 -5.140934
1.8969718 -3.4996824 2.153003 2.3750386 3.3268747 2.5410535 1.9036869 2.5135036
-55.687214 3.2633877 -5.7979712 4.4204435 -5.408782 -4.8148346 3.799931 -4.572916
2.1029582 -5.642741 -1.2647288 -0.8315103 3.5803823 -7.7374406 2.0078468 2.768613
00000000: dc5f 33bf 9f8f 1cc2 5506 f9c1 2cd5 adc1
00000010: 86be cdc1 06d8 cac1 0e93 25c1 6aa4 c5c1
00000020: d506 48be fc0c d7c1 1218 ce3e ba57 663e
00000030: 7bb0 0ec1 2a50 2c3f 94ed e1be 67c3 0fc1
00000040: efc0 bcbf c352 48bd c718 40c0 f6b7 97c1
00000050: 01a4 aec0 6c70 b9c0 3117 35c1 b2fe b9c0
00000060: 8479 3bc2 6456 a4c0 220a 46c2 5394 71c2
00000070: 1660 a2c1 2c13 15c2 4705 3bc2 f90f 86c1
00000080: c9d8 09c2 4ebd 36c1 d8c2 39c1 fe27 a4c1
00000090: 0f62 59c1 b167 7bc1 5db4 4ec0 9c48 80c1
000000a0: 3a6f 19c1 a2ed 48c1 e759 14c1 e27e 2bc1
000000b0: 48cd 33c1 8b11 ddc0 67da 23c1 4a7b 1ec1
000000c0: 1550 0540 57f1 483f 7555 4b40 301b a240
000000d0: 3187 4c40 788c 4b40 0684 493e dee4 5d40
000000e0: 3ba5 0540 653b 6440 6053 2440 8529 1d40
000000f0: 9b08 0f40 0ac0 2e40 987f 0940 8100 c83f
00000100: 952c ca3f 4c8d 2540 a613 4140 e1fb 3440
00000110: ec38 5340 eb4a 5940 150c aec1 a7fa 7440
00000120: 4b18 ebc1 82d2 6240 3253 01c1 1d98 b4c1
00000130: 7ee1 adc1 4fb3 8ec1 304d bcc1 a251 b1c1
00000140: e993 0940 2658 45c2 22d8 64c1 8ee5 e9c1
00000150: 843c 6ac1 8b8c 6ec1 be4e 47c1 da3b 84c1
00000160: a918 0840 fc0f 4ec1 d95a 0c40 35c5 2240
00000170: 2114 08c1 7be7 2640 a796 0240 a7a4 10c1
00000180: 1f86 a53f 17be 2d40 f38e dbc0 7936 8fc1
00000190: 58d0 e9c0 ab35 c1c0 cd9a d1c1 cb09 d2c0
000001a0: 98b7 29c2 f7c2 e4c0 317d 67c2 ab8e 7cc2
000001b0: 9b6b c1c1 6ed6 27c2 019e 2cc2 5725 adc1
000001c0: 2e4e 4dc1 eb57 26c0 0e77 a83c 7cb9 9bbf
000001d0: 0d2f ca3d c86d 05bf 3cd3 413f 5a59 d1be
000001e0: 9c4e 47c0 9164 8c3d cc24 12c0 4e2b 59c0
000001f0: 2289 ce3d fd2e 40c0 db5d 74c0 06c0 d9be
00000200: 10ac eb3f b39b 9e3f 2c5a 8fc0 1119 2840
00000210: 8e06 56c0 59a9 c0c0 4680 5940 8882 a4c0
00000220: f9cf f23f ccfa 5fc0 cdca 0940 a200 1840
00000230: 84eb 5440 9fa0 2240 03ac f33f 3edd 2040
00000240: b5bf 5ec2 58db 5040 fb88 b9c0 4674 8d40
00000250: be14 adc0 2013 9ac0 1232 7340 5455 92c0
00000260: de96 0640 5691 b4c0 a2e2 a1bf dcdd 54bf
00000270: fc24 6540 1d99 f7c0 9080 0040 f530 3140
